task2_3.pth (torch, 53573 bytes, 10 tensors)

net.0.weight f4 [128, 10]
0	0xbe9f8bc3	-0.31161317
1	0xbeb6dfc9	-0.3571761
2	0xbd20963b	-0.03920577
3	0xbfa0e230	-1.2569027
4	0x3d582629	0.052770767
5	0xbe2f7d6f	-0.17137693
6	0x3ee3bd03	0.44480142
7	0x3df1f35f	0.118139975
8	0x3d699e3d	0.057035673
9	0x2a317e1d	1.5764512e-13
10	0x3eca78c9	0.39545277
11	0x3daf88f8	0.085710466
12	0x3c98f7c8	0.018672839
13	0x3e17ef08	0.14837277
14	0x3d1252bf	0.035723444
15	0xbde9bfe5	-0.11413554
16	0xbe3b928f	-0.18317626
17	0xbdd12265	-0.10211638
18	0x3e4ff1ff	0.20307158
19	0x27939f20	4.097322e-15
20	0x3e836c0f	0.2566838
21	0x3d63181c	0.055442914
22	0x3e86cf9e	0.26330274
23	0x3eb9f528	0.36319852
24	0xbdda8b45	-0.10671095
25	0x3e84266b	0.2581056
26	0xbe937411	-0.2879949
27	0x3e60ce85	0.21953781
28	0xbe7d0fd9	-0.24713077
29	0x29af1a33	7.776106e-14
30	0xbe053611	-0.13008906
31	0x3d350e28	0.044202954
32	0xbd70be93	-0.058775496
33	0x3e991122	0.29895884
34	0x3c511050	0.012760237
35	0x3e98aa7d	0.29817572
36	0x3de00d23	0.10940006
37	0xbe63d416	-0.22248873
38	0xbe195c69	-0.14976658
39	0x28de40be	2.4675029e-14
40	0xbe8a9920	-0.2706995
41	0x3de8e921	0.11372591
42	0xbe9444b8	-0.28958678
43	0x3e62d431	0.22151257
44	0x3ed206a4	0.4102069
45	0x3e65a3f0	0.22425818
46	0x3e8d227e	0.27565378
47	0xbd477eb9	-0.048704837
48	0x3eb87834	0.36029208
49	0xaa03f2bc	-1.1719353e-13
50	0x3e6f25ed	0.23354311
51	0xbd581e08	-0.052763015
52	0x3e4fb846	0.20285138
53	0x3e477e39	0.19481744
54	0xbe8f1eea	-0.27953273
55	0x3d9664de	0.07343458
56	0xbd89d4e9	-0.067300625
57	0xbd4cef74	-0.050033048
58	0xbec57dc6	-0.3857252
59	0x296906a0	5.174214e-14
60	0x3e87120a	0.2638095
61	0xbdf372fe	-0.118871674
62	0x3e359d30	0.17735744
63	0xbe93b579	-0.2884939
64	0xbdc97d4d	-0.09838352
65	0x3e0c62c3	0.1370955
66	0xbeb41233	-0.35170135
67	0xbe35fd53	-0.17772417
68	0x3ef337a8	0.475034
69	0x29c143a9	8.582659e-14
70	0xbd831d43	-0.064020656
71	0x3d270c22	0.040783055
72	0xbd209971	-0.039208833
73	0xbd9138fa	-0.070909455
74	0x3dab4639	0.08363003
75	0xbe7a69b2	-0.24454382
76	0x3e2bb9cf	0.16770099
77	0xbdc410db	-0.095735274
78	0x3d43ac3e	0.047771685
79	0xa8065a06	-7.458015e-15
80	0xbd47b439	-0.048755858
81	0x3e436868	0.19082797
82	0xbe6ade11	-0.22936274
83	0x3e35ef21	0.17767002
84	0x3eb7208b	0.35767016
85	0x3e8014d4	0.2501589
86	0x3e9c3092	0.30505806
87	0xbd90d2c0	-0.07071447
88	0x3eb58b57	0.3545787
89	0xa9c14161	-8.582263e-14
90	0x3ac4ae71	0.0015005601
91	0x3d4b5394	0.049640253
92	0xbeaaf9e5	-0.3339378
93	0xbea6c3fa	-0.32571393
94	0x3ed728ec	0.42023408
95	0x3e91fd51	0.28513578
96	0xbcfee240	-0.031113744
97	0xbd8eb12e	-0.06967388
98	0xbca913bc	-0.020639293
99	0xa8b33a33	-1.9898232e-14
100	0xbf0dcf51	-0.55394465
101	0x3eff4ea5	0.4986469
102	0x3d71baf6	0.05901619
103	0x3d8fd30f	0.07022678
104	0x3e30d461	0.17268516
105	0xbf0ade11	-0.54245096
106	0x3ec47ace	0.38374943
107	0x3eda7568	0.426677
108	0x3ef76b81	0.48324206
109	0xaa313bdb	-1.5741525e-13
110	0x3eaf94d6	0.3429324
111	0xbe1a5fe3	-0.1507564
112	0x3d45f279	0.048326943
113	0x3eef0556	0.46683758
114	0x3e176fc0	0.14788723
115	0x3e0b1cab	0.13585155
116	0xbdc83396	-0.09775464
117	0xbd9dda46	-0.07707648
118	0xbe7ce81d	-0.24697919
119	0x2984ed59	5.903151e-14
120	0x3dbe640f	0.092964284
121	0xbe2fd616	-0.17171511
122	0xbebb6acb	-0.36604914
123	0xbeeef574	-0.4667164
124	0x3eb5dad0	0.35518503
125	0xbc5f5a0a	-0.013632307
126	0x3e98d326	0.29848593
127	0xbe37d04e	-0.17950556
128	0x3e3ee350	0.186414
129	0xa8d3f751	-2.3532962e-14
130	0x3e96fd1f	0.2948999
131	0xbd9c06fc	-0.0761852
132	0xbe0189c3	-0.12650208
133	0x3e282f54	0.16424304
134	0x3e43bc2c	0.1911475
135	0x3ea67956	0.32514447
136	0x3e1de274	0.15418416
137	0x3e495b53	0.19663744
138	0xbca46bcb	-0.020070931
139	0xa7b7db88	-5.103072e-15
140	0x3cba112e	0.02271327
141	0xbd03100c	-0.031997725
142	0x3e914634	0.28373873
143	0x3e9d2936	0.30695504
144	0xbea83255	-0.328509
145	0xbb5a765c	-0.0033334708
146	0xbe88a414	-0.26687682
147	0x3e2218ce	0.15829775
148	0xbeca0ebe	-0.39464372
149	0x29a2ca52	7.229342e-14
150	0xbb1e523d	-0.0024157905
151	0x3e8e5610	0.27800035
152	0x3ef4f9ea	0.4784692
153	0x3da01723	0.07816913
154	0xbe725498	-0.23665082
155	0x3e099cb1	0.1343868
156	0xbe1da4ec	-0.15394944
157	0xbe951bb0	-0.29122686
158	0xbc07985f	-0.008276074
159	0x283cb3ea	1.0475109e-14
160	0x3eaadb07	0.3337023
161	0xbe8c44b9	-0.2739618
162	0xbd8b2305	-0.06793789
163	0xbea30c2e	-0.3184523
164	0xbda1f0ec	-0.0790728
165	0xbdc269d6	-0.09492843
166	0x3e1b762f	0.15181802
167	0x3eb8bdd6	0.36082333
168	0xbf010303	-0.5039522
169	0xa8aec2a5	-1.9402294e-14
170	0xbed3062a	-0.4121564
171	0xbe1658fb	-0.14682381
172	0x3cc7372a	0.024318296
173	0x3e1176a5	0.14205416
174	0x3cb2067f	0.021731613
175	0x3eae9dab	0.34104666
176	0xbdc4774f	-0.09593069
177	0x3e6d4728	0.23171675
178	0xbd0bec84	-0.034161106
179	0x28e61e17	2.5548179e-14
180	0xbd8316ea	-0.06400855
181	0x3eb0cdd2	0.34532028
182	0x3cb2a07a	0.021805037
183	0xbdde7c69	-0.10863573
184	0x3e7d2f38	0.24725044
185	0x3ea7d56f	0.32780024
186	0xbd95cd94	-0.073146015
187	0xbeb93ddf	-0.36180016
188	0x3d2d7554	0.04234822
189	0x289912cd	1.6994566e-14
190	0x3d488628	0.048956066
191	0xbe9b0933	-0.30280456
192	0xbcbba1c7	-0.02290429
193	0x3eedf533	0.46476135
194	0xbce5bf9e	-0.028045472
195	0x3eb415ae	0.3517279
196	0xbd9dfd91	-0.077143796
197	0xbea2869a	-0.31743318
198	0xbd103ea7	-0.035216
199	0x29bf120f	8.4852366e-14
200	0xbeae01df	-0.33985803
201	0xbddf3372	-0.10898484
202	0xbe3a191f	-0.18173645
203	0x3db8ca92	0.09023012
204	0x3e73f4ba	0.23823825
205	0x3eb21768	0.34783483
206	0x3d8d9c98	0.069146335
207	0xbc493ac0	-0.0122820735
208	0xbd3217d2	-0.043479748
209	0xa8a7dc30	-1.8636216e-14
210	0x3e77f985	0.24216278
211	0xbe81b561	-0.25333694
212	0x3b5f33c0	0.0034057945
213	0x3f13af93	0.5768978
214	0xbe2c9b0d	-0.16856022
215	0xbe5d1da0	-0.21593332
216	0xbc4cf908	-0.012510546
217	0xbe7e0295	-0.24805672
218	0xbd735d0c	-0.05941491
219	0x29542a51	4.711016e-14
220	0xbf051d53	-0.5199787
221	0xbe92830d	-0.2861561
222	0x3dc9ad0c	0.09847459
223	0x3ec7bec5	0.39012733
224	0xbd17d83e	-0.03707146
225	0xbe70d112	-0.23517254
226	0x3dd00067	0.10156327
227	0x3e0a9333	0.13532715
228	0x3efa4238	0.48878646
229	0xa8da2c22	-2.4222001e-14
230	0x3d399b9a	0.04531441
231	0x3e275986	0.16342744
232	0xbece79d1	-0.40327314
233	0xbe474928	-0.194615
234	0x3dd3fb65	0.10350684
235	0x3d3ed99c	0.046594247
236	0xbe32b3d3	-0.1745141
237	0xbe8b7808	-0.27240014
238	0x3e926234	0.28590548
239	0xa81416b0	-8.22057e-15
240	0x3edf3027	0.43591425
241	0x3d8a291d	0.06746123
242	0xbee4a864	-0.44659722
243	0x3e626325	0.22108133
244	0x3f00ec31	0.503604
245	0x3db22921	0.08699251
246	0xbdd25e06	-0.1027184
247	0x3d2079ea	0.039178766
248	0x3ed18a44	0.409258
249	0xaa2e679d	-1.5490253e-13
250	0xbf092404	-0.5357058
251	0x3d612710	0.054968894
252	0xbe0b4327	-0.13599835
253	0x3e879f5e	0.26488775
254	0xbc71cb28	-0.014757909
255	0x3e29fc29	0.16600098

net.0.bias f4 [128]
0	0x3d81a684	0.063305885
1	0xbb92c5d1	-0.004479148
2	0x3ec328be	0.3811702
3	0xbb23f2f2	-0.0025016633
4	0x3e24f16b	0.16107719
5	0x3dae7a6d	0.085194446
6	0x3e5573ca	0.20844951
7	0x3d63886b	0.05555002
8	0x3dbcc508	0.09217268
9	0x3c8cad34	0.017172433
10	0x3d802d7e	0.06258677
11	0x3e537b4a	0.206525
12	0x3e772af7	0.24137484
13	0x3eb74ad3	0.35799274
14	0x3e98d885	0.2985269
15	0xbe0becbc	-0.13664526
16	0x3e57d7de	0.2107844
17	0x3d79d416	0.060993277
18	0x3d62fba3	0.05541576
19	0xbc7199ce	-0.014746143
20	0x3e2df873	0.16989307
21	0x3eab364f	0.33439872
22	0x3e93b254	0.2884699
23	0x3e444b0e	0.19169256
24	0x3e90b34d	0.28261796
25	0xbc90540c	-0.017618202
26	0x3ebbe628	0.36699033
27	0x3e3c0568	0.18361437
28	0x3e2cc219	0.16870917
29	0x3edbd621	0.42936805
30	0x3cd400bc	0.025879256
31	0x3ddd3c7b	0.10802551
32	0x3c838e74	0.016059138
33	0x3e5788d1	0.21048285
34	0x3e02f991	0.12790515
35	0xbdffd9c5	-0.12492708
36	0x3ea21126	0.31653708
37	0x3eab69d9	0.33479193
38	0xbe04a4b8	-0.1295346
39	0x3e72debc	0.23717779
40	0x3ea91e78	0.33031058
41	0x3e85656c	0.2605394
42	0x3d13b363	0.03605975
43	0x3e8e631c	0.2780999
44	0xbd32e261	-0.043672923
45	0x3c7ea724	0.015542779
46	0xbc2ae300	-0.010430098
47	0x3e08d36b	0.133619
48	0xbca64813	-0.02029804
49	0xbe2ec209	-0.17066206
50	0xbdc86867	-0.09785538
51	0x3dd20746	0.102552935
52	0xbe69177b	-0.22762863
53	0xbdc12454	-0.09430757
54	0x3e2f4125	0.17114694
55	0x3e350911	0.1767924
56	0xbe08182b	-0.1329047
57	0x3e425478	0.18977535
58	0x3e8a48f4	0.27008784
59	0x3e806737	0.25078747
60	0xbd83c24a	-0.06433542
61	0x3e22da43	0.15903573
62	0x3d7deb5b	0.06199203
63	0x3d99481c	0.07484457
64	0x3e9159e0	0.28388882
65	0x3e97cbbe	0.2964763
66	0x3e63e91f	0.22256897
67	0x3f01c651	0.5069323
68	0xbd8c7e85	-0.06860069
69	0x3d41d856	0.047325455
70	0x3e077a3f	0.13230227
71	0x3d9ef6af	0.07761895
72	0xbc65ee86	-0.014033919
73	0x3e62132b	0.22077624
74	0x3e8c418c	0.27393758
75	0x3e8b3b73	0.27193794
76	0x3ea9832e	0.33107895
77	0x3ea2c934	0.3179413
78	0x3e9fd3f2	0.3121639
79	0x3e55a0c0	0.20862103
80	0x3eb1b240	0.34706306
81	0x3e9f4423	0.31106672
82	0x3dd2ee7c	0.102993935
83	0x3e8c07fc	0.27349842
84	0x3eb3a1f2	0.35084492
85	0x3e27b446	0.16377363
86	0xbdff3bb2	-0.12462558
87	0xbd16bca9	-0.036801014
88	0x3e9a3024	0.30114853
89	0x3e954e11	0.29161122
90	0x3ed21234	0.41029513
91	0xbb1e562a	-0.0024160245
92	0x3f257687	0.64633983
93	0x3e3edb07	0.1863824
94	0xbbc2bd02	-0.0059429416
95	0x3dbda6e2	0.09260346
96	0xbac9536d	-0.0015359946
97	0x3e881ee1	0.2658606
98	0x3f1b92aa	0.60770667
99	0x3ea0210a	0.31275207
100	0x3d19d256	0.037554108
101	0x3e90ed85	0.28306213
102	0x3e9b62c8	0.30348802
103	0x3dc001ad	0.0937532
104	0x3eb3a01d	0.35083094
105	0x3d8e7302	0.0695553
106	0xbdad6820	-0.08467126
107	0x3ea0f7fb	0.31439194
108	0x3ebaf7f9	0.36517313
109	0x3e731878	0.23739803
110	0x3ea2b537	0.3177888
111	0x3d4b5232	0.049638934
112	0x3e1e1ec9	0.15441431
113	0x3c93262e	0.017962541
114	0x3ee4b4b0	0.44669104
115	0x3e697505	0.22798546
116	0x3e2281db	0.15869848
117	0xbdc3004b	-0.0952154
118	0x3e9c24ab	0.30496725
119	0x3e7332cc	0.23749846
120	0x3e8b886d	0.27252522
121	0x3df175b8	0.11790031
122	0x3dcb36bf	0.09922551
123	0xbdf4939d	-0.119422175
124	0x3ec669ce	0.38752598
125	0x3e306f9f	0.1723008
126	0x3e3b0412	0.18263271
127	0x3e949600	0.2902069

net.2.weight f4 [64, 128]
0	0x3e53a755	0.20669301
1	0x3dd5f508	0.104471266
2	0x3e09fc80	0.13475227
3	0xbdae8cd3	-0.08522954
4	0xbe2c10c6	-0.16803274
5	0x3e157c3e	0.14598176
6	0x3e2428aa	0.16031137
7	0x3d3ab822	0.04558576
8	0xbda62f44	-0.08114484
9	0xbd48f0b5	-0.04905768
10	0x3da99ead	0.08282218
11	0x3d6dc142	0.058045633
12	0x3b173385	0.002307148
13	0xbd57f2cb	-0.05272178
14	0x3daed25c	0.085362166
15	0x3e244492	0.16041782
16	0x3dc40a6e	0.09572302
17	0xbc65e728	-0.014032163
18	0x3d301983	0.04299308
19	0x3d76109b	0.06007443
20	0xbd5694a8	-0.052387863
21	0x3d6dad5e	0.058026664
22	0xbda02a8b	-0.078206144
23	0xbc9a7576	-0.018854838
24	0x3cb7e671	0.02244875
25	0xbe0a29b8	-0.13492477
26	0xbde26f9d	-0.11056445
27	0x3e6a8f73	0.22906284
28	0xbd8442b5	-0.06458036
29	0xbe9573c3	-0.29189882
30	0x3b656412	0.0035002274
31	0x3e08dc99	0.13365401
32	0x3dfd499a	0.12367554
33	0x3e4547db	0.19265692
34	0xbe476626	-0.1947256
35	0x3d4d24f3	0.050084066
36	0xbc107868	-0.00881777
37	0xbe18116f	-0.148504
38	0xbd1d9521	-0.0384723
39	0xbdd17ceb	-0.10228904
40	0x3c548257	0.012970529
41	0x3d9bf8ad	0.076157905
42	0xbc661049	-0.014041969
43	0xbb091c36	-0.0020921356
44	0xbd0100f6	-0.031495057
45	0xbbb7ce31	-0.0056092967
46	0xbce62f09	-0.0280986
47	0x3cde8660	0.027163684
48	0x3e0212d3	0.12702493
49	0xbbf83429	-0.0075745774
50	0xbcdf4cf8	-0.027258381
51	0xbcd6f9c2	-0.02624214
52	0x3d2ebd94	0.042661265
53	0x3dd90f02	0.10598566
54	0xbd98f1c9	-0.07467992
55	0x3d9fc972	0.078020945
56	0x3e511241	0.2041712
57	0xbda244e1	-0.07923294
58	0xbdc483ed	-0.09595475
59	0xbd6ffa50	-0.058588326
60	0x3a94b422	0.0011345188
61	0xbe7cf7d9	-0.24703921
62	0x3c41e7af	0.011835023
63	0xbd0a29dd	-0.03373133
64	0x3c8b8bf8	0.017034516
65	0x3d3ebb57	0.04656538
66	0x3d83a33d	0.064276196
67	0xbe449a0d	-0.1919939
68	0x3e62611e	0.2210736
69	0x3d6950a3	0.056961667
70	0x3c1b9744	0.009496514
71	0x3dc43960	0.09581256
72	0x3dd1e871	0.10249413
73	0xbe234821	-0.15945484
74	0x3dd04db5	0.101710714
75	0xbe01cec3	-0.1267653
76	0xbdb2b750	-0.0872637
77	0x3c2721d3	0.010200935
78	0xbda6b2b9	-0.081395574
79	0xbd8a6f82	-0.0675955
80	0x3da79e10	0.08184445
81	0xbd4b0ca4	-0.049572602
82	0x3df2c3f5	0.11853782
83	0x3e081c5a	0.13292065
84	0xbdb6ed0d	-0.089319326
85	0x3d1635b7	0.03667232
86	0xbc18df2e	-0.009330554
87	0x3d8476dd	0.06467984
88	0xbde90d3f	-0.113794796
89	0xbcb52500	-0.02211237
90	0xbdd1932c	-0.10233149
91	0x3c53520e	0.012897981
92	0xbe661844	-0.22470194
93	0x3d1844b2	0.037174888
94	0x3d1bb85d	0.03801762
95	0x3dc2a2cc	0.09503707
96	0x3dc90ee3	0.098172925
97	0x3dbd66bb	0.0924811
98	0xbe51c7fb	-0.20486443
99	0x3d26068b	0.040533584
100	0x3dd1590e	0.10222064
101	0x3cd1ae47	0.025595797
102	0xbd922811	-0.07136548
103	0xbd3ed114	-0.04658611
104	0xbdb25cc3	-0.08709099
105	0x3d7f02f9	0.062258694
106	0x3e27ee1e	0.16399428
107	0xbdd2b5b4	-0.10288563
108	0xbd9b4bb4	-0.075827986
109	0xbbd50938	-0.006501343
110	0x3def2da5	0.11678628
111	0x3e03a4ff	0.1285591
112	0xbc46dd98	-0.012137793
113	0x3e41baf2	0.1891897
114	0xbe975218	-0.2955482
115	0xbd9ae201	-0.07562638
116	0x3df08362	0.11743809
117	0xbc8546de	-0.016269144
118	0xbdb02d9d	-0.0860245
119	0x3de43de7	0.111446194
120	0xbe26eb67	-0.16300736
121	0x3e3f3c6b	0.18675391
122	0x3cc08511	0.023500951
123	0x3ca45b7d	0.020063156
124	0x3c048ecf	0.008090689
125	0x3d72ba23	0.059259545
126	0x3e0900d8	0.13379228
127	0xbe05f90e	-0.13083288
128	0xbdbea573	-0.09308901
129	0x3cadfde9	0.021239238
130	0x3e07d5df	0.13265179
131	0xbc48631f	-0.012230664
132	0xbd807b3e	-0.062735066
133	0x3d8a8698	0.06763953
134	0xbe03e4fe	-0.12880322
135	0x3d053096	0.03251704
136	0xbd95b9f8	-0.07310861
137	0xbe3b912e	-0.183171
138	0x3e632928	0.22183669
139	0x3d4b0e56	0.04957422
140	0xbded9567	-0.11600762
141	0x3d94e90c	0.07271013
142	0xbd0b4fb9	-0.034011576
143	0xbdd05bd5	-0.101737656
144	0x3db4b90f	0.088243596
145	0x3d8e2161	0.0693996
146	0xbe3f1cff	-0.18663405
147	0x3d03ca62	0.03217543
148	0x3cba55e2	0.02274603
149	0x3def2d2c	0.11678538
150	0x3e55f9bb	0.20896046
151	0xbe15234b	-0.14564244
152	0xbd0080eb	-0.031372946
153	0x3e18c32c	0.14918202
154	0x3e1dc299	0.15406264
155	0xbe7e08b0	-0.24808002
156	0x3d15a33f	0.036532637
157	0x3dfdba2d	0.12389026
158	0xbd9b6f03	-0.07589533
159	0xbdb36cfd	-0.08761022
160	0xbc56379f	-0.013074785
161	0xbd3af31b	-0.045642
162	0x3c83803e	0.016052362
163	0x3c35ecb0	0.011103794
164	0xbc4295a5	-0.011876498
165	0x3e134e86	0.14385423
166	0x3e7d5c7a	0.24742308
167	0xbd8aea9d	-0.0678303
168	0x3d578903	0.0526209
169	0x3d36aed7	0.044600334
170	0x3d72fb25	0.05932154
171	0x3cac14be	0.021005984
172	0xbda812a5	-0.08206681
173	0xbe15e18c	-0.1463682
174	0x3cfc2925	0.030781338
175	0xbd934a2f	-0.07191884
176	0xbdb02a2d	-0.086017944
177	0xbd25678b	-0.04038195
178	0x3d2b7b56	0.04186567
179	0x3e272d1a	0.16325799
180	0xbe49cdcf	-0.19707416
181	0x3cbe972d	0.023265446
182	0x3d7eddeb	0.062223356
183	0xbe3bf1c8	-0.18353951
184	0xbe256def	-0.16155218
185	0xbd2d81c2	-0.042360075
186	0xbe2fc433	-0.17164688
187	0xbd940321	-0.07227159
188	0xbe320811	-0.1738589
189	0x3d93445f	0.07190775
190	0xbe86058c	-0.26176107
191	0x3d8bb37a	0.06821342
192	0xbb883b3a	-0.004157451
193	0xbdb53042	-0.08847095
194	0xbd8cb279	-0.068699785
195	0x3e705bfd	0.2347259
196	0xbe2e4734	-0.1701935
197	0xbc960585	-0.018313179
198	0x3c03b8cc	0.0080396645
199	0xbc9476af	-0.018122999
200	0xbe37cb6b	-0.17948692
201	0xbc833aac	-0.016019188
202	0x3b60dda6	0.00343118
203	0x3df844fc	0.12122533
204	0x3e0af262	0.13569024
205	0x3e024bca	0.12724224
206	0x3c20c99c	0.009813692
207	0xbcdb1440	-0.026743054
208	0xbd2c8e59	-0.04212794
209	0x3dc40fb1	0.095733054
210	0xbe1f115e	-0.15533969
211	0x3dec891d	0.1154959
212	0x3cf2e460	0.029649913
213	0x3e28db8d	0.16490002
214	0xbe13db2a	-0.14439073
215	0x3d15a897	0.036537733
216	0x3d974468	0.07386094
217	0x3e09312c	0.13397664
218	0x3e2cd013	0.16876249
219	0xbb6b896d	-0.0035940066
220	0x3eae5c85	0.34054962
221	0x3dc3a3fc	0.09552762
222	0x3d8222eb	0.06354316
223	0x3da1bae1	0.078969724
224	0x3d0965ab	0.033544224
225	0xbe2770b7	-0.16351591
226	0x3ebfd999	0.374707
227	0xbd821e52	-0.063534394
228	0x3dd74d2c	0.10512766
229	0xbdde7a8d	-0.108632185
230	0x3dead3f7	0.1146621
231	0x3bff4109	0.007789735
232	0x3e54727e	0.207468
233	0x3e4c5cce	0.19957277
234	0xbd9e688f	-0.07734787
235	0xbc8287f9	-0.015933977
236	0x3e88239f	0.26589677
237	0xbe046fa3	-0.12933211
238	0x3debd68c	0.11515531
239	0x3e030525	0.12794931
240	0xbd90b93a	-0.07066579
241	0xbd242460	-0.040073752
242	0x3e001cf1	0.1251104
243	0x3d7be2d6	0.061495624
244	0x3c912674	0.017718531
245	0xbdf1e653	-0.11811509
246	0x3e1b1b07	0.15147029
247	0xbe45db5a	-0.19321957
248	0x3e14f5ee	0.1454694
249	0x3b6eca9e	0.0036436687
250	0xbd34b5b5	-0.0441186
251	0xbadcac6a	-0.0016836051
252	0x3e7f9790	0.2496016
253	0xbd041a10	-0.032251418
254	0x3ca01041	0.019539
255	0x3dd695ab	0.10477766

net.2.bias f4 [64]
0	0xbc7d7057	-0.015468678
1	0x3e02d703	0.12777333
2	0x3b5352de	0.0032245438
3	0xbd996e19	-0.074917026
4	0x3d28647b	0.04111145
5	0x3dfe797f	0.12425517
6	0x3d849792	0.06474222
7	0x3da4b513	0.0804235
8	0x3c81a181	0.015824081
9	0x3dceef80	0.10104275
10	0x3ddad9e8	0.106860936
11	0x3d3f89c4	0.046762243
12	0xbd030f4f	-0.03199702
13	0x3dce01a5	0.100589074
14	0x3dcc3e52	0.09972824
15	0xbd87b733	-0.06626739
16	0x3d17f8ef	0.037102636
17	0x3dede6da	0.11616297
18	0xbc2ee5ec	-0.010674935
19	0x3da74b6e	0.08168684
20	0xbbdd4f41	-0.0067538326
21	0x3d8c4b14	0.068502575
22	0x3d9b1514	0.0757238
23	0xbcdc2aff	-0.02687597
24	0xbc52aa85	-0.012858038
25	0x3d98eb49	0.07466752
26	0x3d2b25a1	0.041783933
27	0x3e23eaeb	0.16007583
28	0xbc99edf6	-0.018790226
29	0x3da8bd99	0.08239288
30	0x3dccaa3a	0.09993406
31	0x3d8fbe8c	0.07018766
32	0xbd799a14	-0.060937956
33	0x3dab3133	0.083589934
34	0xbccaab74	-0.024739958
35	0x3e0220ef	0.12707876
36	0xb91c7b4e	-0.00014923254
37	0x3df4d118	0.11953944
38	0x3e031a5a	0.12803021
39	0x3c5153c9	0.012776324
40	0x3d53c436	0.051700793
41	0x3d6f709c	0.058457002
42	0x3de42f70	0.111418605
43	0x3dda658f	0.10663902
44	0x3e21fce0	0.1581912
45	0xbceffc88	-0.029295221
46	0x3d8e7bcc	0.06957206
47	0x3d41b0c1	0.047287706
48	0x3d2efffa	0.042724587
49	0x3da8a3df	0.08234381
50	0xbd1099b0	-0.035302818
51	0xbc9a656a	-0.018847186
52	0x3d1d90d1	0.038468186
53	0x3e19801a	0.14990273
54	0xbc21d2cc	-0.009876918
55	0x3d06956c	0.032857344
56	0xbb6990d7	-0.003563931
57	0x3d8112bf	0.06302404
58	0x3dccfebf	0.100095265
59	0xbd29a6b4	-0.041418746
60	0x3d6d84ec	0.057988092
61	0x3cc135ee	0.023585286
62	0x3de58c3a	0.11208387
63	0x3cb6e439	0.022325622

net.4.weight f4 [32, 64]
0	0xbd39ae4f	-0.04533225
1	0x3d0d7516	0.03453549
2	0x3d471317	0.04860219
3	0x3e80b827	0.25140497
4	0xbc53564b	-0.012898992
5	0xbe400cc9	-0.18754877
6	0x3e8437dd	0.2582387
7	0xbd8b4f5c	-0.06802246
8	0x3eb31783	0.34978876
9	0x3e3613c6	0.1778098
10	0x3da32913	0.07966819
11	0x3cd87a3a	0.02642547
12	0x3ec26889	0.3797038
13	0x3df584b5	0.119882025
14	0xbcafc843	-0.021457797
15	0x3d895936	0.06706469
16	0xbe29d9d8	-0.16587007
17	0xbd978a7c	-0.07399461
18	0x3e0e01ee	0.13867924
19	0xbdb77ec7	-0.08959728
20	0x3dec65cc	0.11542854
21	0x3df61bc2	0.12017013
22	0x3de872ac	0.11349997
23	0xbd566722	-0.05234445
24	0x3eb702b7	0.3574426
25	0xbe21a33e	-0.15784928
26	0x3dc57e68	0.09643251
27	0x3e239a8a	0.1597692
28	0x3ee9de28	0.45677304
29	0x3dc22212	0.09479155
30	0xbf02ad45	-0.5104564
31	0x3dafdd59	0.085871406
32	0xbdc24758	-0.09486264
33	0x3db7d540	0.08976221
34	0x3dba1d22	0.09087588
35	0xbe426312	-0.18983105
36	0x3e83fcde	0.2577886
37	0x3dc57d02	0.09642984
38	0xbe4276a9	-0.18990578
39	0x3e5ad669	0.21370853
40	0xbdeb2a28	-0.1148265
41	0xbe5e0729	-0.21682419
42	0xbed5db10	-0.41768694
43	0x3e2c2918	0.16812551
44	0xbc00296a	-0.007822374
45	0xbd297d2b	-0.041379135
46	0xbcc6726b	-0.02422448
47	0x3dbfe112	0.09369101
48	0x3d0c2510	0.034215033
49	0x3dd05564	0.10172537
50	0xbe9c9460	-0.3058195
51	0xbd3da70d	-0.04630189
52	0xbe1bfaa3	-0.15232329
53	0x3e5e8da0	0.21733713
54	0xbdb7d903	-0.089769386
55	0xbdd14ef4	-0.10220137
56	0xbe6ccfe8	-0.23126185
57	0x3d17e129	0.037079964
58	0xbceff880	-0.029293299
59	0x3d9cefbc	0.07662913
60	0xbdad13f4	-0.084510714
61	0xbe814b15	-0.25252596
62	0x3d578ffe	0.052627556
63	0x3e5dd3b2	0.21662787
64	0x3e318d8a	0.17339149
65	0xbdda1eb8	-0.106503904
66	0x3e264811	0.16238429
67	0x3e167c02	0.14695743
68	0xbe1112d0	-0.14167333
69	0xbe180a89	-0.14847769
70	0x3e374209	0.17896284
71	0xbe177ebc	-0.14794439
72	0x3ece94f7	0.40348026
73	0x3e3d1ef6	0.18468842
74	0x3e44335d	0.19160219
75	0xbd575a18	-0.052576154
76	0x3eafe710	0.34355974
77	0x3db4ef56	0.08834712
78	0x3ca47dbc	0.020079486
79	0x3d4b156c	0.049580976
80	0x3dd221d0	0.102603555
81	0xbdafb9d7	-0.08580368
82	0xbd3466d9	-0.044043396
83	0xbd305a75	-0.043055017
84	0x3e852b32	0.26009518
85	0x3e39fece	0.18163607
86	0xbe3081de	-0.1723704
87	0xbda82247	-0.08209663
88	0x3ecf0a65	0.40437618
89	0x3dc48b73	0.0959691
90	0x3e46bd84	0.19408232
91	0x3d82e5fa	0.06391521
92	0x3ea75560	0.32682323
93	0xbd9bbebb	-0.07604738
94	0xbde7ab66	-0.113119885
95	0x3e618248	0.22022355
96	0x3dc87bf0	0.09789264
97	0x3d8a893b	0.06764456
98	0xbe0624f9	-0.13100041
99	0x3db7afd9	0.08969087
100	0x3e31e832	0.17373732
101	0xbbbbc0f3	-0.0057297884
102	0xbe9935fa	-0.29923993
103	0x3e03717a	0.12836257
104	0x3dbf3ee6	0.09338169
105	0x3dfb5b49	0.12273271
106	0xbe980a55	-0.29695383
107	0xbe0dfb1f	-0.13865326
108	0xbceabbbc	-0.028653972
109	0xbc926801	-0.017871859
110	0xbe0c2f0a	-0.13689819
111	0x3e0f9efa	0.14025488
112	0x3d61da40	0.05513978
113	0x3d7ea9ab	0.062173527
114	0x3dcccb4f	0.099997155
115	0xbe4a55f6	-0.19759354
116	0x3c23a909	0.009989032
117	0xbd5d6259	-0.05404887
118	0x3e3dd3d7	0.18537842
119	0xbdc3869e	-0.095471606
120	0x3e05efdb	0.13079779
121	0x3cb32259	0.021866964
122	0x3e481b5a	0.19541684
123	0x3cd888b7	0.026432378
124	0xbd3cee49	-0.046125684
125	0x3de5b6cb	0.112165056
126	0xbe9cf8ab	-0.3065847
127	0x3e72912d	0.23688193
128	0x3e4547bb	0.19265644
129	0x3daa68de	0.08320783
130	0x3e6172f5	0.22016509
131	0x3dde4ad3	0.10854115
132	0xbe97737c	-0.29580295
133	0xbd25c510	-0.040471137
134	0x3e51259e	0.20424506
135	0x3d3074a2	0.04307998
136	0x3e379c8f	0.17930816
137	0x3eacc5e3	0.33744726
138	0x3d930a84	0.0717974
139	0xbd577007	-0.052597072
140	0xbe0e2550	-0.13881421
141	0x3ce4bb12	0.027921233
142	0x3e1a117c	0.15045732
143	0x3daba6f3	0.083814524
144	0xbdba8c52	-0.09108795
145	0x3a5dbd35	0.0008458675
146	0x3d8b8586	0.06812577
147	0xbe4aafd7	-0.1979364
148	0x3e2f6b26	0.17130718
149	0x3e9c2428	0.30496335
150	0x3d3ca359	0.046054218
151	0x3e2de08d	0.1698019
152	0x3dd57591	0.10422815
153	0xbd906994	-0.070513874
154	0x3dc7b9f7	0.09752267
155	0x3e06e9cc	0.13175124
156	0xbad329d1	-0.0016110485
157	0xbcd97387	-0.026544346
158	0xbf35d3df	-0.71026415
159	0xbd00363b	-0.03130172
160	0xbd77257c	-0.060338482
161	0xbe154fd5	-0.14581235
162	0xbea463ad	-0.32107297
163	0x3da3ca59	0.07997579
164	0x3d6586f3	0.0560369
165	0xbd5d966e	-0.05409854
166	0xbeb5ae13	-0.3548437
167	0xbd90650b	-0.070505224
168	0xbdaa8ce7	-0.08327656
169	0xbe63c9a4	-0.22244889
170	0xbeedf978	-0.46479392
171	0x3d5d9f9f	0.054107305
172	0x3d99a7fc	0.075027436
173	0x3d37c11b	0.044861894
174	0x3d049e32	0.03237743
175	0x3e0c6d1a	0.13713494
176	0x3e90089b	0.28131565
177	0x3df6dfbe	0.12054394
178	0x3dc42ce5	0.095788755
179	0x3d8f4948	0.06996399
180	0xbd9a9bb5	-0.0754923
181	0xbc46b25d	-0.012127486
182	0xbe293255	-0.16523106
183	0xbdede578	-0.11616033
184	0xbe8d3618	-0.27580333
185	0xbdcdf9b1	-0.100573905
186	0xbd659a76	-0.05605551
187	0x3d8f7580	0.07004833
188	0xbcf500ff	-0.029907702
189	0xbe0f6360	-0.14002752
190	0x3d961a16	0.07329194
191	0x3cfdb477	0.030969841
192	0x3e868cef	0.262794
193	0x3c981b6f	0.018567769
194	0xbe0ac346	-0.13551053
195	0x3e4db6b8	0.20089233
196	0x3eca2b27	0.39486048
197	0x3d46aad5	0.048502762
198	0xbe07c601	-0.13259126
199	0x3e3278bd	0.1742887
200	0x3e638766	0.22219619
201	0xbe70f32e	-0.23530266
202	0x3e7dddf2	0.24791697
203	0x3d1d1c14	0.038356856
204	0x3e02bc48	0.12767136
205	0xbde1e742	-0.11030437
206	0xbd96cf6a	-0.0736378
207	0xbe31e220	-0.17371416
208	0x3e275503	0.16341023
209	0xbd8b714c	-0.06808719
210	0x3e7501cc	0.23926467
211	0x3e28dd1d	0.16490598
212	0xbe37eac7	-0.17960654
213	0x3e3d2da3	0.1847444
214	0xbd34f43b	-0.04417823
215	0x3d0e1094	0.03468378
216	0xbe637e3e	-0.22216126
217	0x3df7f401	0.12107087
218	0xbec69162	-0.38782793
219	0x3ca7fa85	0.0205052
220	0xbe215dae	-0.15758392
221	0x3c365009	0.01112748
222	0x3d0e58e0	0.034752727
223	0xbe2997f3	-0.1656187
224	0x3d2d7b27	0.042353775
225	0x3e5dd5a1	0.21663524
226	0x3dc1bec8	0.09460217
227	0xbc21b134	-0.009868909
228	0x3e26f61a	0.16304818
229	0xbdc3a83d	-0.09553573
230	0x3de8e3b8	0.11371559
231	0x3e760f8a	0.24029365
232	0xbd98ea18	-0.07466525
233	0x3dfce99c	0.12349245
234	0x3e3322b8	0.17493713
235	0xbdbdad99	-0.09261627
236	0xbe908b00	-0.2823105
237	0xbd63aa6a	-0.05558244
238	0x3e08b23a	0.13349238
239	0xbe7c8f5d	-0.24664064
240	0xbe958996	-0.29206532
241	0x3d4d4518	0.05011472
242	0x3e31b0cd	0.173526
243	0xbda52654	-0.08063951
244	0x3d8a4509	0.06751449
245	0xbe379365	-0.1792732
246	0x3da92f78	0.08261007
247	0xbe2ee4df	-0.17079495
248	0x3d48fc71	0.049068872
249	0x3e6dbd39	0.23216714
250	0xbdf43225	-0.11923627
251	0x3e187218	0.14887273
252	0xbda79228	-0.08182174
253	0x3dabbd19	0.08385677
254	0xba14c7a2	-0.00056754996
255	0xbdb578ce	-0.08860932

net.4.bias f4 [32]
0	0xbbff8fd0	-0.007799126
1	0x3b35383d	0.0027651929
2	0x3d53a98e	0.05167537
3	0x3da1a538	0.07892841
4	0xbcff8083	-0.031189209
5	0x3cb59018	0.022163436
6	0xbda13852	-0.0787207
7	0x3cc66646	0.02421869
8	0x3d68c725	0.056830544
9	0xbdc89e79	-0.09795851
10	0x3da7c840	0.081924915
11	0x3d4f85b8	0.050664634
12	0xbd33c811	-0.04389197
13	0x3db6bff6	0.089233324
14	0x3e160476	0.14650139
15	0x3d7d2124	0.061799183
16	0xbc807c0a	-0.015684146
17	0x3d3bc753	0.045844387
18	0x3d1791e9	0.037004385
19	0x3a050949	0.0005074931
20	0xbc87f76b	-0.01659747
21	0x3d2da932	0.042397685
22	0x3d494690	0.04913956
23	0xbbe5df95	-0.0070151784
24	0x3c02c14c	0.007980656
25	0xbcc26c55	-0.023733297
26	0x3e2034d0	0.15645146
27	0x3db7046c	0.0893639
28	0x3dcf5465	0.10123519
29	0xbbb3a80a	-0.0054826783
30	0xbcde5e59	-0.027144598
31	0x3d967043	0.07345631

net.6.weight f4 [16, 32]
0	0x3e3f82e0	0.18702269
1	0x3df3b503	0.118997596
2	0x3d85ef86	0.06539826
3	0x3d8ba15e	0.06817888
4	0xbe1c6014	-0.15271026
5	0xbd9e6f24	-0.07736042
6	0x3c466db9	0.012111121
7	0x3dc92036	0.09820597
8	0xbe8833a1	-0.2660189
9	0x3dbdc057	0.092652015
10	0x3e8ef1d1	0.27918866
11	0xbe75f977	-0.24020945
12	0xbe168355	-0.14698537
13	0xbc5031d8	-0.012707196
14	0xbdd694bb	-0.10477587
15	0xbe86f436	-0.26358193
16	0x3e0a5c28	0.13511717
17	0xbe0da004	-0.13830572
18	0x3c83a042	0.016067628
19	0x3cb361c5	0.021897206
20	0x3ec21475	0.37906232
21	0x3e5908de	0.21194789
22	0xbdda5b3c	-0.10661933
23	0xbdd1e8d3	-0.10249486
24	0x3eb49973	0.35273322
25	0x3e90f8e1	0.2831488
26	0x3e25bb37	0.16184698
27	0xbdc0ebde	-0.09419988
28	0xbcda3f30	-0.026641458
29	0xbdffcfae	-0.12490784
30	0xbcea85f3	-0.028628325
31	0x3ec40c45	0.3829061
32	0xbd2e258f	-0.042516287
33	0x3d2e1f34	0.042510226
34	0x3e1cbcbf	0.15306376
35	0x3e44fe8c	0.19237727
36	0x3e44db86	0.19224367
37	0xbeaf8e0c	-0.3428806
38	0xbe23c198	-0.15991819
39	0x3e83d3f2	0.2574764
40	0xbdcac2d2	-0.0990044
41	0xbe95fd9a	-0.29295045
42	0x3e79991a	0.2437481
43	0x3d4e9c36	0.050441943
44	0xbed93543	-0.42423448
45	0x3dd8ffee	0.1059569
46	0x3e4d1874	0.2002886
47	0x3e4a2e60	0.19744253
48	0xbede4684	-0.43413174
49	0x3df046f5	0.11732284
50	0x3dd1443c	0.10218093
51	0x3d36c31c	0.044619665
52	0xbdcbc572	-0.09949769
53	0x3ddcc818	0.10780352
54	0x3d1e851f	0.038701173
55	0xbdb3fc7f	-0.08788394
56	0xbdf69a80	-0.12041187
57	0xbe226138	-0.15857399
58	0xbd2c6d40	-0.042096376
59	0x3dedbd4e	0.11608373
60	0x3db624c4	0.08893731
61	0xbec505fc	-0.38481128
62	0xbe75d56e	-0.24007198
63	0xbd83c9d9	-0.06434984
64	0xbd86e830	-0.06587255
65	0x3eb35933	0.3502899
66	0x3e33d12b	0.1756026
67	0x3e3d1358	0.1846441
68	0x3e130e1e	0.14360854
69	0x3e3a8743	0.18215661
70	0x3c329a7d	0.010901091
71	0xbd57d453	-0.052692723
72	0x3c0afc7c	0.0084830485
73	0x3e0a1f97	0.13488613
74	0xbd05e1a9	-0.03268591
75	0xbe955083	-0.29162988
76	0xbe9d8b16	-0.30770177
77	0xbe12e801	-0.14346315
78	0x3ddf55e1	0.10905052
79	0x3e4c0cfe	0.19926831
80	0xbd9d9671	-0.0769471
81	0xbece8af5	-0.4034039
82	0xbe0490db	-0.12945883
83	0xbe1f9da0	-0.15587473
84	0xbe80efdc	-0.25182998
85	0xbed7b2d6	-0.42128628
86	0xbe9c82e9	-0.30568627
87	0xbdf87651	-0.12131942
88	0x3cf8de16	0.030379336
89	0xbcba52d9	-0.022744583
90	0xbdb69073	-0.0891427
91	0x3d7dcd93	0.06196363
92	0xbc492a31	-0.012278126
93	0x3e376d4d	0.17912789
94	0xbdea1b5d	-0.114310004
95	0x3e8307ee	0.25591987
96	0x3e11fe35	0.14257129
97	0x3d1312c5	0.035906572
98	0x3e5b013d	0.21387191
99	0x3e9ba8c2	0.3040219
100	0x3de9f381	0.11423398
101	0x3d05bc58	0.03265032
102	0xbe6fb6bd	-0.23409553
103	0x3c3aee17	0.011409304
104	0xbd221ab0	-0.039576232
105	0xbe8eb597	-0.27872917
106	0xbd40b8ed	-0.04705136
107	0xbded4eab	-0.1158727
108	0x3d104033	0.035217475
109	0x3e23b877	0.15988337
110	0xbdba9c8f	-0.091118924
111	0x3e9545e0	0.29154873
112	0x3ec6e8cb	0.38849482
113	0x3ed6f1f6	0.41981477
114	0x3e64cf78	0.22344768
115	0xbdd3dff8	-0.10345453
116	0xbe9e8862	-0.30963427
117	0xbd98f551	-0.074686654
118	0x3d86b55d	0.06577561
119	0x3e98a76e	0.2981524
120	0xbd6ef341	-0.058337454
121	0xbf1344bd	-0.5752676
122	0x3d7c46e7	0.061591055
123	0x3d648dfd	0.055799473
124	0xbdd256d2	-0.10270466
125	0xbe968904	-0.2940141
126	0x3ecf2ccb	0.40463862
127	0xbdb030e1	-0.08603073
128	0xbdd6c6ee	-0.104871616
129	0xbe62013b	-0.22070782
130	0xbe6027f6	-0.21890244
131	0x3c133c4b	0.008986543
132	0x3e2e2104	0.17004782
133	0x3e0674b8	0.13130462
134	0x3eaa452c	0.332559
135	0x3e41c2c3	0.18921952
136	0xbd9c7fc3	-0.07641556
137	0x3d8dede9	0.069301434
138	0x3dba6f6f	0.091032855
139	0x3e851114	0.25989592
140	0xbdd726b4	-0.10505429
141	0x3e0bfe0a	0.13671127
142	0xbee3aaa7	-0.44466135
143	0x3d0bf473	0.03416867
144	0xbed97780	-0.42473984
145	0x3d97ffff	0.07421874
146	0x3e04caf8	0.12968051
147	0xbe17f697	-0.1484016
148	0x3e824b60	0.25448132
149	0xbcf50ddd	-0.029913837
150	0x3d8906db	0.06690761
151	0x3e3a7ad1	0.18210913
152	0x3dc8ba54	0.09801164
153	0x3e982d19	0.29721907
154	0xbe9eb32c	-0.30996072
155	0x3cbd6523	0.023119515
156	0xbd0a9c8e	-0.03384071
157	0xbf5ddd02	-0.86665356
158	0xbe234427	-0.15943967
159	0x3e202691	0.15639712
160	0x3e472fa1	0.19451763
161	0x3db23c87	0.08702951
162	0x3dac1877	0.08403104
163	0xbdc7a7f8	-0.09748834
164	0x3e4d5120	0.20050478
165	0xbbfad8eb	-0.007655253
166	0x3ebd05b1	0.36918405
167	0x3d869bcf	0.06572687
168	0xbf7ac53d	-0.9795721
169	0x3e8ea468	0.27859807
170	0x3da2a47e	0.07941531
171	0x3e1f1298	0.15534437
172	0xbdb7d427	-0.08976012
173	0xbccfe798	-0.025378987
174	0x3c181265	0.009281729
175	0xbef79451	-0.48355344
176	0x3dab3436	0.08359568
177	0x3d535864	0.051597968
178	0xbe08ba05	-0.13352211
179	0xbed7e66d	-0.42167988
180	0x3dd42531	0.10358656
181	0x39157a4e	0.0001425531
182	0xbda93dae	-0.082637176
183	0xbe77ad08	-0.241871
184	0x3e798fd4	0.24371272
185	0xbe1ce9a8	-0.15323508
186	0xbbfdcdf0	-0.007745497
187	0xbf1f4ae6	-0.6222366
188	0xbdfc3776	-0.12315266
189	0xbd914d45	-0.07094816
190	0xbe269559	-0.16267909
191	0x3a6da1c0	0.0009064935
192	0x3e3b96c2	0.18319228
193	0x3e8a242b	0.2698072
194	0xbe7cd9bd	-0.24692436
195	0x3dc8adb2	0.09798755
196	0xbe5d0293	-0.21583013
197	0xbcea25d8	-0.028582498
198	0x3d15730c	0.03648667
199	0x3e0adf7f	0.1356182
200	0x3dd11178	0.1020841
201	0x3df439e2	0.11925103
202	0xbd90bbc5	-0.07067064
203	0x3e57c777	0.21072184
204	0xbdf334ce	-0.11875306
205	0xbe26532e	-0.16242668
206	0x3e1c6459	0.15272655
207	0x3ec14f1c	0.37755668
208	0x3e881d2c	0.26584756
209	0x3e786ee5	0.24261053
210	0xbe961c0b	-0.2931827
211	0x3ec53ad1	0.38521436
212	0xbc27eb33	-0.010248947
213	0xbf0daba4	-0.5534003
214	0xbe1f50bc	-0.15558141
215	0xbe82962b	-0.25505194
216	0x3e8485f3	0.25883445
217	0x3ddba694	0.10725132
218	0xbdc052b1	-0.09390772
219	0x3e23ecb7	0.16008268
220	0xbdbbc311	-0.09168065
221	0xbea43376	-0.32070512
222	0x3e4d3077	0.20038019
223	0xbd1e9936	-0.038720332
224	0x3e98bbf9	0.29830912
225	0x3dc482dc	0.09595272
226	0x3e146492	0.1449149
227	0xbd89c3aa	-0.06726773
228	0x3d715169	0.05891553
229	0x3e1297b5	0.14315684
230	0xbd7fefae	-0.062484436
231	0xbdc293d9	-0.09500856
232	0xbe23bd32	-0.15990141
233	0xbd5c199f	-0.05373537
234	0x3dcf7040	0.10128832
235	0x3dddf8f8	0.10838503
236	0xbddc01f5	-0.10742561
237	0x3cf8c890	0.030369073
238	0xbe5c20e9	-0.21496929
239	0xbca11b2a	-0.019666273
240	0xbe5e6174	-0.21716863
241	0xbe26d9a2	-0.16293958
242	0x3db3acac	0.08773169
243	0x3d8e2a1d	0.06941626
244	0xbe196de5	-0.14983328
245	0x3d213e59	0.0393661
246	0x3e04a962	0.1295524
247	0xbe1b8227	-0.15186368
248	0x3de53086	0.11190896
249	0x3dae5ad1	0.085134156
250	0x3e6da43a	0.23207179
251	0x3e904a93	0.28181896
252	0x3e4e7376	0.20161232
253	0x3e246e88	0.1605779
254	0xbd6f34ff	-0.05840015
255	0x3c56526c	0.013081174

net.6.bias f4 [16]
0	0xbd5a3d62	-0.053281195
1	0x3e051ba0	0.1299882
2	0x3d0bfbf7	0.03417584
3	0xbd8fcb8e	-0.07021247
4	0xbd6f7934	-0.058465198
5	0xbdba733a	-0.09104009
6	0x3de92223	0.11383464
7	0x3e0243e4	0.1272121
8	0x3d095b1f	0.033534165
9	0xbc9cf9c3	-0.019162064
10	0xbe8bcd5c	-0.27305114
11	0x3d387b42	0.045039423
12	0xbd0abc9b	-0.033871274
13	0x3e3cd53c	0.18440717
14	0xbd526d0c	-0.051373526
15	0x3bb6966c	0.005572131

net.8.weight f4 [14, 16]
0	0xbe4aa1ac	-0.19788235
1	0x3dcc5a07	0.09978109
2	0x3d0a0154	0.033692673
3	0xbe029fcd	-0.12756272
4	0x3d368c71	0.04456753
5	0x3d7f86b8	0.062384337
6	0xbdf42fc9	-0.11923177
7	0xbda01d0a	-0.07818039
8	0xbe15cb29	-0.1462828
9	0xbc9aef79	-0.018913018
10	0x3e0a0e52	0.13482025
11	0x3b75df47	0.0037517117
12	0xbd228303	-0.039675724
13	0x3e95bfa4	0.29247773
14	0x3ebf223c	0.37330806
15	0x3cee0cf9	0.02905892
16	0x3e342a33	0.17594223
17	0xbbf8206d	-0.007572225
18	0xbddeae5c	-0.108731
19	0x3b72bcd2	0.0037038815
20	0xbd8f1270	-0.069859385
21	0xbd36de52	-0.044645615
22	0x3d1a1ba4	0.037624016
23	0xbd07b1c8	-0.03312853
24	0x3e23c6b8	0.15993774
25	0xbea8bd6b	-0.32957014
26	0xbdbd5585	-0.09244827
27	0xbb1d4b33	-0.002400112
28	0xbe10f662	-0.14156488
29	0x3e29364b	0.16524617
30	0x3ded71a1	0.115939386
31	0x3e1ae20f	0.15125297
32	0x3d0376c5	0.03209569
33	0x3c8aeb7d	0.016957993
34	0xbe135b72	-0.14390352
35	0x3cbbc81a	0.022922564
36	0x3b3a3b43	0.002841667
37	0x3cc6b398	0.024255559
38	0xbc81ed98	-0.015860364
39	0xbda859dd	-0.08220265
40	0xbcc4b679	-0.024012791
41	0x3d29bd9a	0.041440584
42	0xbc4afce5	-0.012389396
43	0xbaefda94	-0.0018299394
44	0xbb0b4f1d	-0.0021256872
45	0x3b87e424	0.0041470695
46	0x3e071e33	0.13195114
47	0xbd58bee5	-0.052916426
48	0xbe2787c9	-0.16360392
49	0x3cd419ad	0.02589115
50	0xbdb53822	-0.08848597
51	0x3e0f957e	0.1402187
52	0x3da8324c	0.08212718
53	0x3d9c73a9	0.07639248
54	0xbe47c6fe	-0.19509503
55	0x3e10c565	0.141378
56	0x3dc27ed1	0.094968446
57	0xbc5d40d3	-0.013504225
58	0x3c8eef65	0.017448137
59	0x3c8f5421	0.01749617
60	0xbe160baa	-0.14652887
61	0x3e5b0d92	0.21391895
62	0x3e4c7c8e	0.19969389
63	0xbd866fbb	-0.0656428
64	0xbce34456	-0.027742546
65	0xbc8fbb01	-0.017545225
66	0x3e1875df	0.14888714
67	0xbca1437e	-0.019685503
68	0x3a4cb62d	0.0007809129
69	0xbd268fb7	-0.0406644
70	0x3c5cdf54	0.01348098
71	0x3d86e2b8	0.06586212
72	0x3d2609f4	0.040536836
73	0xbcf02e19	-0.029318856
74	0xbb8c8015	-0.0042877295
75	0x3bf4c5b9	0.0074698594
76	0x3be5d6e6	0.0070141433
77	0xbc68e896	-0.014215609
78	0xbdf5d625	-0.120037355
79	0x3d738333	0.059451293
80	0xbde89269	-0.113560505
81	0xbe41bf77	-0.18920694
82	0x3d7447b0	0.05963868
83	0xbdc69dcc	-0.09698066
84	0x3df0f298	0.11765021
85	0x3c80d6ca	0.01572742
86	0xbdf051c0	-0.117343426
87	0x3e6902ba	0.22754946
88	0xbd3ecdb7	-0.046582904
89	0x3e313903	0.17306904
90	0xbdc3103b	-0.0952458
91	0x3bd8983b	0.006609944
92	0x3de6fc4b	0.1127859
93	0x3d27f10c	0.041001365
94	0x3d483164	0.048875228
95	0xbc2cb480	-0.010541081
96	0x3e9af60d	0.30265847
97	0x3e071613	0.13192014
98	0x3e84a932	0.25910336
99	0x3d8a1037	0.06741374
100	0x3bfd2bbb	0.0077261603
101	0xbd12eac8	-0.035868436
102	0xbe10a03f	-0.14123629
103	0xbe820e3b	-0.25401482
104	0x3beaa05b	0.007160229
105	0x3d7488be	0.05970072
106	0x3ae2e4a3	0.0017310571
107	0x3c8b9dd7	0.017043037
108	0x3d130f74	0.03590341
109	0xbd4703fb	-0.04858778
110	0xbb895d33	-0.0041920184
111	0xbe22cf97	-0.15899502
112	0xbf06d6c8	-0.5267148
113	0x3e9fabc3	0.3118573
114	0x3e1b6bfc	0.15177912
115	0x3f110846	0.5665325
116	0xbc0607a6	-0.0081805345
117	0xbf437577	-0.7635111
118	0x3ef2a47c	0.47391117
119	0x3c90d91c	0.01768165
120	0xbf40f000	-0.7536621
121	0xbe7449af	-0.23856233
122	0xbf228fa6	-0.6350044
123	0xbf407611	-0.75180155
124	0x3e8fbb3d	0.2807254
125	0x3e02cd3b	0.12773602
126	0x3df950f7	0.12173646
127	0xbd264d6d	-0.040601183
128	0xbb484026	-0.0030555814
129	0x3d0f6213	0.03500564
130	0xbea009b2	-0.31257397
131	0xbdd12fa3	-0.10214164
132	0x3eb280a6	0.34863776
133	0x3ccf3e94	0.025298394
134	0x3dd59a4e	0.10429822
135	0x3dee374e	0.11631642
136	0x3c51eba4	0.012812529
137	0x3dccbe00	0.09997177
138	0xbe3dc3de	-0.18531749
139	0x3e9509e4	0.29109108
140	0xbdb1e17d	-0.086855866
141	0x3f0dd7a3	0.5540716
142	0xbed30b97	-0.4121978
143	0x3e81fbdd	0.2538747
144	0x3d01945f	0.03163564
145	0x3d8b30af	0.06796395
146	0x3d9f8c4a	0.0779043
147	0x3e303d62	0.17210916
148	0xbf02c563	-0.5108244
149	0xbdef526b	-0.11685642
150	0xbba89e6d	-0.005145839
151	0xbc800214	-0.01562599
152	0x3dfb27d1	0.12263454
153	0x3ea4179d	0.32049266
154	0xbe238756	-0.15969595
155	0xbede8537	-0.4346101
156	0xbe90d5ab	-0.28288016
157	0x3f363811	0.711793
158	0xbe9e5dd4	-0.3093096
159	0xbe022e6b	-0.1271302
160	0xbd90ab20	-0.070638895
161	0x3ec70482	0.38870627
162	0xbee799b8	-0.45234466
163	0xbe9e3ade	-0.30904287
164	0x3d2cd1c9	0.042192254
165	0x3d805d86	0.06267838
166	0x3f1fd6d1	0.6243716
167	0x3e9869e2	0.29768282
168	0x39a3ce23	0.00031243367
169	0xbe6a0544	-0.22853571
170	0xbd2b76f0	-0.041861475
171	0x3e38dcba	0.1805295
172	0xbd51f205	-0.0512562
173	0xbd5bbe30	-0.053648174
174	0xbe86ecd6	-0.26352566
175	0xbf653a59	-0.89542156
176	0x3de0b091	0.10971177
177	0xbeda99f9	-0.42695597
178	0xbda2590f	-0.07927143
179	0xbd26462f	-0.040594276
180	0x3f1789cd	0.5919464
181	0x3e0f51e8	0.13996089
182	0x3e6fcf6b	0.23418967
183	0xbdc55c3c	-0.09636733
184	0xbd8a5ede	-0.06756376
185	0xbe90468a	-0.28178817
186	0x3e8e6a5d	0.27815524
187	0xbf042097	-0.5161223
188	0x3f09eabb	0.53873795
189	0xbdb1c8e5	-0.08680896
190	0xbe0875d9	-0.13326205
191	0xbe56cc48	-0.20976365
192	0xbd45c9cd	-0.048288155
193	0xbeb72d70	-0.35776854
194	0x3e6c1ffe	0.23059079
195	0x3d97a365	0.07404212
196	0x3d961cd5	0.07329718
197	0xbd978263	-0.07397916
198	0x3e3eff0a	0.18651977
199	0xbd432e1f	-0.047651406
200	0xbd4003d4	-0.04687865
201	0x3dd82166	0.10553245
202	0xbdfaf19f	-0.12253117
203	0x3f17c612	0.59286606
204	0x3b8f768f	0.004378147
205	0x3e3fefc7	0.18743812
206	0xbd7faef5	-0.06242271
207	0xbeb86e9d	-0.3602189
208	0xb3889f5e	-6.361982e-08
209	0x33f31745	1.1319802e-07
210	0x3172760b	3.5282735e-09
211	0xb18c791d	-4.0883052e-09
212	0xb3d3467e	-9.8382756e-08
213	0xb26beb46	-1.3732295e-08
214	0x338db6f2	6.599102e-08
215	0x340f160b	1.3325932e-07
216	0x330cd2e8	3.278811e-08
217	0xb3317ef2	-4.132648e-08
218	0xb39d6d6b	-7.330785e-08
219	0xb42e9bcb	-1.626169e-07
220	0x3378a0f1	5.7888375e-08
221	0x339a1961	7.1758e-08
222	0x33766656	5.7369412e-08
223	0x3446e3d6	1.8523073e-07

net.8.bias f4 [14]
0	0x3e672be9	0.22575344
1	0x3e8d8868	0.27643132
2	0x3d9e897a	0.07741065
3	0xbd5e6771	-0.05429787
4	0xbdc50fb1	-0.096221335
5	0x3de01878	0.10942167
6	0xbb8281e1	-0.003982768
7	0x3d72680c	0.059181258
8	0x3d3981ab	0.045289677
9	0xbc5f1d8a	-0.0136178825
10	0x3d819862	0.06327893
11	0xbe55c0e0	-0.20874357
12	0xbe4554d9	-0.19270648
13	0xb57f15fc	-9.5026894e-07
